asl_classifier.pth (torch, 75150 bytes, 6 tensors)

fc1.weight f4 [128, 63]
00000000: 5dbd 933e cc0f 7dbc f5ad f53e 5fa4 41bd
00000010: 99ad 573b 7b51 9b3e 79e7 413f d4f3 98bb
00000020: a643 f63c 1782 cc3f 8916 fabe 328d a0be
00000030: fcaf ad3f 41c9 1bc0 bcb3 31bf 3cda d4be
00000040: 908c 603c 6704 223f 7823 893e 8d04 243f
00000050: 078f dabf 8466 163f ba78 913f 44b0 e5bf
00000060: 3f25 273f d274 8d3f 1f44 adbf fa5a 92be
00000070: b0de 003f 6346 473f 7025 96bf ff66 383f
00000080: 5ecb 48bf d442 debf c38c 523f 6f4a bebf
00000090: 1f3c 1cc0 e835 6c3f 87cb 04c0 3654 b73e
000000a0: 9423 37be 2dea 26bf aad0 7d3e 54c0 813f
000000b0: 5fa5 04be 6618 2d3f db40 c33f 6da5 1a3d
000000c0: 220b 493f ce4a f33f 1dbc 783d c116 223e
000000d0: c0e0 b83e a9fc f0be 01c4 38be 8d89 ae3f
000000e0: d42d f4be 7f61 60bc 2ce9 0440 feff 143e
000000f0: 5bed a63d 33dc a43f ec01 e33e 0350 0bbf
00000100: b1d0 b23d 82df acbe 743d 12bf 84c2 24be
00000110: da51 a03c 2840 4ebe fe16 eebd 12ab bb3d
00000120: f82c 7fbf 6b5e 56bf 78f9 a63e ad59 6dbf
00000130: 6582 96bf 2af2 713e 647b 4ebd b47b 00bf
00000140: 841b 373e c8dd 1c3f 7ae8 973d 987d 42bf
00000150: 943c 383f b269 133f 3c66 f2bc d1f2 713f
00000160: 044e 253f 1c10 ac3f 3b27 023f 983c 583f
00000170: 2e50 8c3e bce3 113c 456c 913e 31fd cfbf
00000180: 7ba8 01bf 51a4 6a3f fbaa 65bf 8df9 21bf
00000190: 047b d73f ac1f 13bf 35f5 86bc c4e9 293f
000001a0: a069 6f3d dd1a 0e3f 9206 583e 4682 cbbd
000001b0: d832 e13e 40bd d73e e148 8f3e 16c9 dc3f
000001c0: d796 303f 17e1 b93e 946e d03d bb4d a93e
000001d0: 7ff8 43bd c609 c23e 246f d1bf 2b34 e03e
000001e0: cf8a 0a3e 5452 a9bf dc8b bc3d 29e9 2bbe
000001f0: 3d94 01bf d955 a23e e2ca 28be 8a04 2a3f
00000200: 4114 aebf be94 91be 2b1b 2a3f 041e a4bf
00000210: d9de eebe f057 183f 8ef2 28bf 9b5e 5abe
00000220: 13d6 b33e ab25 063e 182c 483d f70c 1f3e
00000230: 8df9 ab3e 02d3 9cbd 3bd9 a43e b02b 0d3f
00000240: f073 883f cb3f 8dbf ef3d f03d d1d1 d23f
00000250: 9486 e3be 37a0 103e 7a2e e33f 4ba2 d33d
00000260: 56b2 933f d498 cc3e b582 f53e b7e4 023f
00000270: c5c9 9dbf 6740 dcbe f3be 26bf 3a81 7bbf
00000280: 53e4 973d 7fb3 f0be 4e96 9cbf 1117 3a3f
00000290: 1cdd 62bc 0eb9 5dbe eb1c 4ebe 4204 81bd
000002a0: 82f3 013e ba99 72bf 443a ebbe 0a0e 0f3f
000002b0: 59e8 60bf 7ee4 0cbf a38d 943a 0624 8bbe
000002c0: 6348 1cbf 238f 6e3e 5273 f0be 7d02 4fbf
000002d0: 3ac5 c3bd 2e25 68bf 33c5 54bf 8477 f5be
000002e0: b844 783f 5e11 3abf d1ba 88be f65e 0040
000002f0: 8c94 edbe cc89 5a3f b464 9d3d 75a6 9dbc
00000300: b6d4 683e 6a62 05be 469a 19bd f73a b3be
00000310: 2652 0abe 6f45 86bd c924 99bf 6a99 6fbf
00000320: b4b3 f33d 4028 cbbf 75fe d0bf 96d7 d23e
00000330: 86e4 843e 1770 1dbf c6e4 8e3d cec6 d2bd
00000340: 2c2b c2be a577 a93f 2dc2 1abe 8912 e2be
00000350: 5d5a 343f 7e79 473e 6ef4 45bf 23f9 a33e
00000360: 08a8 eb3c dfea cebe 48a3 923e b9b5 b7be
00000370: 916e 073e 0ece 603a b25f 1cbd e4f2 b63e
00000380: 7d80 63be 1c87 833f 444f 493f 5be3 e4be
00000390: 64c9 14be bc5f 423f 0b5c 7d3d e2d4 c8be
000003a0: c44b 843e 603f 8ebd 53bc d1bf af94 083f
000003b0: 8831 493e c49b e33e 158f 343f 5f5f 943e
000003c0: d0a5 15be 1cba 1b3f add7 cfbd c41b df3d
000003d0: da47 40be f7c9 743e 33e2 8abe 10d2 79bf
000003e0: 2201 20bd 014e b4be dd5e 79bf 5136 513d
000003f0: eb7c b33e 9648 e93e 023e 1c3f a04d 083e
0.2885541 -0.015445661 0.4798428 -0.047275897 0.0032909869 0.30335602 0.75743824 -0.0046677385
0.030061554 1.59772 -0.48845318 -0.31357723 1.3569331 -2.4341586 -0.6941488 -0.4157275
0.013705388 0.6328797 0.26784873 0.64069444 -1.7074898 0.58750176 1.1364968 -1.7944417
0.6529121 1.1051276 -1.3536414 -0.28585035 0.50339794 0.77841777 -1.1730175 0.7203216
-0.78435314 -1.7364144 0.82246035 -1.4866465 -2.4411695 0.92269754 -2.0749223 0.35806435
-0.17884666 -0.65201074 0.2478663 1.0136819 -0.12953709 0.67615354 1.5254167 0.03775542
0.7853261 1.9007204 0.060726274 0.15828992 0.3610897 -0.47067764 -0.1804352 1.3635727
-0.47691214 -0.01369512 2.0767317 0.14550778 0.08150741 1.28797 0.44337404 -0.54418963
0.08731211 -0.33764273 -0.5712502 -0.16089827 0.01957028 -0.20141661 -0.11625479 0.091634884
-0.9967799 -0.8373782 0.32612205 -0.9271496 -1.1758543 0.23627535 -0.050410643 -0.50188756
0.1788159 0.6127591 0.07417388 -0.7597289 0.71967435 0.57583153 -0.029589765 0.94511133
0.6457217 1.3442416 0.5084111 0.8446746 0.27404922 0.008904394 0.28402916 -1.6249143
-0.50647706 0.91656977 -0.8971402 -0.6327141 1.6834416 -0.574702 -0.016474346 0.66372323
0.05845034 0.5550974 0.21096256 -0.09936957 0.43984103 0.42136574 0.2798529 1.7248867
0.68980163 0.36304542 0.10177341 0.33067116 -0.047844406 0.37898082 -1.6362042 0.437898
0.13529514 -1.322825 0.092063636 -0.16788162 -0.5061682 0.31706122 -0.16483644 0.66413176
-1.3599931 -0.28433794 0.66447705 -1.282166 -0.46654394 0.5950918 -0.6599511 -0.21325152
0.35124263 0.13100307 0.048870176 0.1553229 0.3358883 -0.07657434 0.32196984 0.55144787
1.0660381 -1.1035093 0.11730563 1.6470281 -0.44438612 0.14123617 1.7748559 0.10333689
1.1538799 0.3996035 0.47951284 0.5113024 -1.23272 -0.43017885 -0.65135115 -0.9824406
0.07416596 -0.47011945 -1.2233369 0.72691447 -0.013846662 -0.21652624 -0.20128219 -0.0629964
0.12690547 -0.9476582 -0.4594289 0.55880797 -0.87854534 -0.5503615 0.0011333715 -0.2717592
-0.61047953 0.2329679 -0.46962982 -0.8086317 -0.09559102 -0.9068173 -0.831134 -0.47942746
0.96979856 -0.7268275 -0.2670503 2.005796 -0.46402395 0.8536651 0.07685223 -0.019244412
0.22737393 -0.13025823 -0.037500642 -0.35005924 -0.135079 -0.06556212 -1.1964351 -0.93593466
0.1189951 -1.5871658 -1.6327654 0.41180104 0.259556 -0.6149916 0.06977229 -0.10291825
-0.37923563 1.3239638 -0.15113135 -0.44154766 0.70450383 0.1947994 -0.77326095 0.32026014
0.028766647 -0.40413567 0.286402 -0.3588083 0.13225771 0.00085756264 -0.0381772 0.35732186
-0.22216983 1.0275607 0.78636575 -0.44704708 -0.1452995 0.7592733 0.061855357 -0.39224917
0.25839055 -0.069456816 -1.6385597 0.53351873 0.19647801 0.44454777 0.70530826 0.28979012
-0.14614034 0.60830855 -0.10148559 0.10893968 -0.18777409 0.23905168 -0.271257 -0.97586155
-0.03906358 -0.35215762 -0.97410375 0.05107719 0.35056242 0.4556319 0.61032116 0.13310862

fc1.bias f4 [128]
00000000: f24f dc3e eedf eb3e e9eb c73e 072e 6a3e
00000010: 1e53 ec3d 858b c0bd 2e4c c1bd 86bb 8abd
00000020: 723d 9cbd e740 8bbc e07b 873e 008d ce3e
00000030: 4f59 8f3e 9e58 60bd 2a82 4c3e 436e b93e
00000040: bf2a d3bd 2569 6b3e 4e4a 57bd 1774 933e
00000050: 6e37 343e 5d12 db3e 1664 a5bd cce7 7c3e
00000060: f0bc 0d3f 62f2 6abd 8944 d0bd a168 ac3e
00000070: 6aca ebbd 6c94 233e ac8c c43e 5a87 b7bd
00000080: 11a9 7b3e 43db bdbd 3024 fabd 03f1 843e
00000090: 2757 e03e f795 933e eab3 90bd 390d 923e
000000a0: f3a6 183e cc46 a53e 49d3 d1bd 7fac fd3e
000000b0: 9177 993e c8d8 0dbd d546 d1bd 9d8d d53e
000000c0: 3119 a8bd 0b8a ab3e 8c5f 223e 56e8 b73e
000000d0: 623f d0bd 822b b2bd a88e 9bbd bd51 923e
000000e0: 85aa d73e 8999 2d3e 0e1f 36bd ee7e 5cbd
000000f0: 646d c03e 209e b5bd 59ff c43e f308 b53e
00000100: ba6d 7e3e 70c7 8fbd 4dcc b9bd 02c0 df3e
00000110: 6c5f f0bc d4c9 cfbd b08e 79bd 10b8 d03d
00000120: ca01 f73e 8ce2 1c3e 469c 31bd 04b6 a8bd
00000130: b2d7 96bd c044 9a3e 58d9 953e 42d8 c83e
00000140: 9f5a b93e 071c 0d3e 1a94 723e e64c af3e
00000150: a539 ef3e acef 393e 602f 533e fd7b 943e
00000160: 9677 da3e 9c49 5e3e 1c4a 7ebd baf9 88bd
00000170: 9caf 093f 1fe3 843e aeb1 c9bd 0192 3d3e
00000180: ae6a 85bd 287e 063f 9aa5 51bd d112 e6bd
00000190: 4800 90bd ade7 84bd 9a16 26bc 44e5 8e3e
000001a0: df61 193e ab2b 8f3e bc4a f5bd 07d7 f7bd
000001b0: 10b5 c33e 5d07 4cbd 35a2 00be c9e0 e5bd
000001c0: 5079 8c3e c6af 803e c672 fbbd 47ce 2d3e
000001d0: 80b8 aa3e 776b 3e3e e4f9 00bd 439a c33e
000001e0: 2d88 eebd 4b7f 443e 1ca1 a13e dd87 9abd
000001f0: 1377 91bd 1216 94bd eb67 cd3e 5e3f 93bd
0.43029743 0.46069282 0.39047173 0.2286912 0.11539291 -0.09401611 -0.09438358 -0.067740485
-0.07628907 -0.016998721 0.26461697 0.4034195 0.27997825 -0.054772012 0.19971529 0.36216936
-0.103108875 0.22989328 -0.052561097 0.28799507 0.1759927 0.42787448 -0.080757305 0.24697798
0.5536642 -0.05736006 -0.10169322 0.33673576 -0.11513217 0.15974587 0.38388574 -0.08961363
0.24576212 -0.092703365 -0.122139335 0.25965127 0.43816492 0.28825352 -0.07065566 0.28525713
0.14907436 0.32280576 -0.102453776 0.49545667 0.29974034 -0.034630567 -0.10218588 0.41709605
-0.0820793 0.33503756 0.1585676 0.35919446 -0.10168339 -0.08699705 -0.07595569 0.28577986
0.42122284 0.169531 -0.04446321 -0.053831987 0.37583458 -0.088680506 0.38476065 0.3535839
0.24846545 -0.070204616 -0.090721704 0.43701178 -0.029342376 -0.101459175 -0.060927093 0.10191357
0.48243552 0.15320796 -0.043361925 -0.08237842 -0.07365359 0.30130577 0.29267383 0.39227492
0.3620195 0.13780223 0.23689309 0.34238356 0.46723667 0.18157834 0.20623541 0.29000846
0.42669362 0.21707767 -0.062082395 -0.066882566 0.53783584 0.2595453 -0.09848343 0.18512727
-0.06514488 0.5253625 -0.05118332 -0.11234058 -0.07031304 -0.06489501 -0.010137225 0.2790929
0.14978741 0.27963004 -0.11977145 -0.1210156 0.38224077 -0.04981171 -0.12561877 -0.11224515
0.27436304 0.25134104 -0.12277751 0.1697322 0.33343887 0.18595682 -0.031488314 0.3820363
-0.11647067 0.19189183 0.3156823 -0.07545445 -0.0710279 -0.07230772 0.40118346 -0.07189821

fc2.weight f4 [64, 128]
00000000: a057 083d 6890 3e3d 64cf 8abd 7355 d03c
00000010: 98ed 60bd 5f2c 8dbd e096 4bbb 8870 21bc
00000020: 821f 01bd 044b 9bbc e0d9 a9bd 0e79 24bd
00000030: 9ae5 96bd 6005 603c 70ac b73c a1d8 b8bc
00000040: 65cf 3bbd 153c e73c bb9c b33d 26f7 dcbc
00000050: bc7f c4bc 34da 9a3d e0d3 98bb cbab 273c
00000060: c84d 843d f616 1d3d de6c 2b3d 25be f13c
00000070: 991d 963d e1ad 41bd 0204 8ebd d0ab 92bc
00000080: e205 823d a45e 98bd 68d9 b5bc c967 a03d
00000090: 52da 81bd 780d c7bc 1840 f6bc a395 22bd
000000a0: 0f5f 563d d01e a6bb 422d 7f3d b760 973d
000000b0: 20f1 9cbd 02f1 673d 835f a23d dd76 bf3c
000000c0: 0842 32bd 4c27 66bd ea3c 983d d16e ab3c
000000d0: 1f5c ad3d d90d 843d d842 b6bc 4f30 a03c
000000e0: dabc bfbd 2db8 973d ed6a 933d e400 d63c
000000f0: fecb 4f3d 501d cf3c 6424 b0bc d178 56bc
00000100: fd45 993d 1f42 a6bd 0ca6 9abc 2d71 3f3c
00000110: c567 9d3d 36bd 483d f8ba d5bc a925 a3bc
00000120: f8cf c6bd e029 a0bd 1e1b 6b3d 20bb aabd
00000130: c048 77bb ce5b 6dbd ee16 a3bd 074b 733c
00000140: 17ec 863d b155 bfbc e142 62bc 4219 00bd
00000150: 2518 e3bc 5799 6b3d ae08 6fbc ebad 54bd
00000160: 8192 c23c 3e5b 6e3d f355 9dbd 41dc 9a3d
00000170: a982 32bd d6ad 56bd 9251 0dbd cd12 d4bc
00000180: 56ca 02bd 2bdd 6dbd e8cb 643c b23f 3bbd
00000190: 40f0 013c e826 653c ec2b e63c 0e41 423d
000001a0: 9c78 303d beca 6d3a 64ad 9dbd a01d dc3c
000001b0: 54f4 65bc 282d 693c 2887 153d b6c5 113d
000001c0: 7fc6 21bc f5a5 293c f056 483c 5039 823d
000001d0: 66de 42bc bf30 163c 9883 9abc 4605 53bc
000001e0: 7ae9 143d d637 5b3d 50a7 e7bc 7010 c93b
000001f0: 3a86 683d 38a9 c13c f0a5 923d 2a5c 483d
00000200: 8bbf 533f 298d 963f 1f8d bd3e 2878 d8bd
00000210: b877 1fbf accb 923c 5a44 91bd 2ed4 513d
00000220: 4bc3 983d 84eb 81bc 52b9 99be d502 ac3f
00000230: 9d75 7b3f 00fc baba c099 4cbe 22ae 983f
00000240: 8d9b 1cbd ecf9 03be 7cab 9ebd 7011 29be
00000250: f603 7ebd 2a9d 2d3e 4b52 9c3d b6f0 cabd
00000260: 87de 843f 468d d6bc 92ee 5c3d c7ba 063f
00000270: 3285 93bd 5e93 39bf cb8e 94bd d96b 1bbd
00000280: 065e e93d e0bc 8c3c 6069 1bbc c292 35be
00000290: 061a c43f 9e7a 39be d8d7 74bc 80be 0e3f
000002a0: 06fe 13bf 370f da3e 643e e23c 4917 ea3e
000002b0: c579 073f c4d8 c03c 77b2 98bd 8cc6 ac3f
000002c0: 78bf 38bc bd63 e23e 4fb2 13be dd51 4ebe
000002d0: 2238 303d c112 873d 080d 993c 8ff7 8f3f
000002e0: 8829 313f 53b6 f13d 04bd 72bd e03c 79bb
000002f0: eb5c 0f3f d79f 8a3d 3fa7 513f f5ef 7cbc
00000300: 1f01 02be f0d4 07bc e657 95bd 96ed ab3d
00000310: f63a 483d 206f 2e3c 4f32 883d b04f 97bf
00000320: bc53 963e 7261 68be fbd1 e83b d472 a33c
00000330: f009 28bc 63c5 683d 3afb 553e 5700 283f
00000340: d117 6a3f 9c76 debe 2d41 b43e e9bd e6bd
00000350: 4038 823f cde0 f23d 08a1 74be 32fc 823e
00000360: d8a2 1a3f 302b 4bbd aecd 323d 9aac 273d
00000370: d059 993f fbe6 33bf 4661 06bd ecef e7be
00000380: 6152 19bd 4082 a33f 6ef2 743d 96b5 3c3d
00000390: efca 10bd 5469 06bd d5b3 b73d 9822 2fbe
000003a0: cf27 3fbf 0a73 1f3f 926c 85bd 64ab 21bd
000003b0: 7df0 833f 56ae 973d c80c f3bc 1b24 b2bd
000003c0: 535b 6b3e 79d5 22bf 403a 1abb d7af 003e
000003d0: 1d79 543f 7a55 e2bd 7f21 62bd 1c78 163f
000003e0: 00f9 a73a 0b2f 84be 3428 3e3f 81e7 a93d
000003f0: 00ac d9ba 4025 ed3a 255f d43e c406 34bd
0.03328669 0.046524435 -0.06777838 0.02543137 -0.054914087 -0.06893229 -0.003106527 -0.00985349
-0.03152419 -0.018956669 -0.082935095 -0.04015451 -0.07368012 0.0136731565 0.022421092 -0.022564234
-0.045852084 0.028226892 0.08770128 -0.026973318 -0.02398669 0.0756115 -0.0046639293 0.01023383
0.06460148 0.038351975 0.04185187 0.029509613 0.07329864 -0.047284964 -0.06934358 -0.017904192
0.06348778 -0.07439926 -0.022198394 0.078322954 -0.063404694 -0.024298415 -0.03005986 -0.039693486
0.05233675 -0.005069591 0.06229902 0.07391494 -0.076631784 0.056626327 0.07928374 0.023372108
-0.043520004 -0.05618982 0.074334934 0.020926865 0.08464836 0.06447954 -0.02224867 0.019554285
-0.093621925 0.074081756 0.07198129 0.026123472 0.05073165 0.025282532 -0.021501727 -0.013090328
0.07484052 -0.0811808 -0.018878005 0.011684698 0.07685808 0.04900857 -0.02609013 -0.019915419
-0.09707636 -0.07820487 0.057398908 -0.083364725 -0.0037732571 -0.05794888 -0.07963358 0.014849431
0.06587999 -0.02335629 -0.0138098905 -0.031274088 -0.027721474 0.057519283 -0.014589472 -0.051923674
0.0237515 0.058192484 -0.07682409 0.07561541 -0.04358164 -0.052411877 -0.03450162 -0.025887871
-0.031931244 -0.05807225 0.013964631 -0.04571504 0.007930815 0.013986327 0.028097115 0.047425322
0.043083772 0.00090710435 -0.07699087 0.026869595 -0.014035303 0.0142319575 0.03650585 0.035588942
-0.009873985 0.010354509 0.012227759 0.06358588 -0.011893844 0.009166895 -0.018861577 -0.012879675
0.036355473 0.053520046 -0.028278023 0.0061359927 0.056768633 0.02364026 0.07160556 0.04891602
0.82714146 1.1761829 0.3702173 -0.10569793 -0.6229205 0.017919384 -0.07093115 0.05122774
0.07459124 -0.015859373 -0.300242 1.3438364 0.9822634 -0.0014265776 -0.19980526 1.1928141
-0.038234282 -0.12888306 -0.07747552 -0.16510558 -0.062015496 0.16954485 0.07632884 -0.09909193
1.038041 -0.026190411 0.053938456 0.5262875 -0.07203139 -0.7249049 -0.07253798 -0.03794465
0.11394887 0.017179906 -0.009485573 -0.17731765 1.5320442 -0.18113181 -0.014944039 0.5575943
-0.57809484 0.42589733 0.02761764 0.4572089 0.5292018 0.023540862 -0.074559145 1.3498092
-0.011276118 0.4421672 -0.14423488 -0.20148416 0.043022282 0.06595374 0.018682972 1.1247424
0.69203997 0.11802354 -0.05926229 -0.003803067 0.56001157 0.06768768 0.8189582 -0.01543807
-0.1269574 -0.008290514 -0.07292156 0.08394925 0.048884355 0.010646611 0.066502206 -1.1821194
0.2936076 -0.22693422 0.0071051097 0.019952215 -0.010256276 0.056828868 0.20896617 0.6562552
0.9144259 -0.43449867 0.35205975 -0.11266691 1.0173416 0.118592836 -0.23889554 0.25583035
0.6040473 -0.049601734 0.043653183 0.04093609 1.1980534 -0.70274323 -0.03280761 -0.45300233
-0.03743208 1.2774124 0.05980151 0.04607161 -0.035349783 -0.032815292 0.08969847 -0.1710304
-0.7467012 0.6228491 -0.06514849 -0.03947009 1.0307766 0.07406299 -0.02966918 -0.08698293
0.22984056 -0.63606983 -0.0023533255 0.12567078 0.82997304 -0.110514596 -0.055207726 0.5877702
0.0012815297 -0.2581714 0.74280095 0.08296109 -0.0016607046 0.0018092766 0.4147884 -0.043951765

fc2.bias f4 [64]
00000000: 31ce a6bd fd1a 4d3e 50b4 8b3d 40e9 bf3b
00000010: 70e1 fdbb a375 1fbd 641a e43d 667e 7c3e
00000020: 311d 983e 41b5 b63e adba 6dbd 44a3 ccb9
00000030: a238 2a3e dab5 82bd d96a 9dbd d56e 913e
00000040: ae4b b1b9 504c 9f38 e266 4bbd 5ec1 6e3d
00000050: 8164 333e c25c a3bd 9a6b 743e 56af 913c
00000060: 49c4 b5bd 18ee f0ba 9126 8e3d 57cf 1d3c
00000070: b362 a1bd f4fd 1fbd ccdb e23b c4a1 883d
00000080: c88b 093e 2aeb e4bc 38b5 bc3d 336d 0a3f
00000090: 1db7 4b3e 3f8d e43d 897f 98bd e49b b9bc
000000a0: fd21 873e 7a3f 393d a6eb 893e afc5 863d
000000b0: ade8 9cbd 65da 36bd f476 20be 9e76 7c3e
000000c0: e860 76bc cd1d e73c 82a9 65bd cf4e 853e
000000d0: abef 7f3d 2873 d23c 761c 9cbd 5415 a1bd
000000e0: 2f95 293e 1dc6 cb3c 20a4 823e 2728 293e
000000f0: 7bb3 d13e 71b7 0a3e 8b00 6fbc 4398 1dbc
-0.08144797 0.20029826 0.06821501 0.005856663 -0.0077478215 -0.038930546 0.11137846 0.24657592
0.2970977 0.3568516 -0.058039356 -0.00039031554 0.16623166 -0.06382342 -0.07686395 0.2840487
-0.00033816457 7.595925e-05 -0.049658664 0.058289878 0.17518808 -0.079766765 0.23869172 0.017783802
-0.08875329 -0.0018381504 0.0694095 0.009631953 -0.078801535 -0.039060548 0.0069231745 0.06671479
0.13432229 -0.027944166 0.09214252 0.54072875 0.19894071 0.11159753 -0.074462004 -0.022657342
0.26393119 0.04522655 0.26937598 0.06580674 -0.07661567 -0.04464187 -0.15670377 0.24654624
-0.015037753 0.028212452 -0.05606986 0.2603669 0.062484425 0.025689676 -0.07622616 -0.07865396
0.16560815 0.024874741 0.25515842 0.16519223 0.40957245 0.1354654 -0.014587532 -0.009618822

fc3.weight f4 [26, 64]
00000000: 04fb 14bd 6c1e 3b3e 3062 e73a a062 05bd
00000010: 04e0 423d c8ee 82bc 8da1 9bbf 4fd9 b9be
00000020: a8d6 04be 6cae 06bf 69d9 9f3d 14f5 49be
00000030: 7c79 52be 545e 5fbd 0f25 50be 4d7c 90be
00000040: 51d7 efbd 5dfb 863e 99a1 d13c 5d7c a93c
00000050: a670 d43d b646 9fbd 640b e0be a185 523e
00000060: 263c 25bd 2d01 873c f9d1 2bc0 f32b d63d
00000070: 95bd 873d 41ca a93c 3ac3 ac3e 9421 a53d
00000080: 042c 9cbe ff24 1fbe 9e4a 0a3e 7fb6 ccbd
00000090: e854 283e 7b02 703e 6402 31bc ade5 fb3b
000000a0: 4b09 763e cc0e 73bf fb92 553e 1c6a 963e
000000b0: cc35 ebbd 0223 863d 56e8 84be aa32 d03d
000000c0: 5e8e e53d 3879 5d3e 0047 2b3d ae7e 023d
000000d0: 32ea d63d 8cda 9cbd 46ee 513d 120d f5bd
000000e0: 4382 9a3d f6e7 2f3e 7516 d4be 735c a9bc
000000f0: 095f a4bc e83d 50bf d757 d63d 5b3f 4f3e
00000100: 083f cebd e2da c5bf 982c ea3d 7245 c5bd
00000110: a04f 8dbd 04ee 273d 99b1 a33f 5fdc 1f3e
00000120: c8d3 20bd d95d 943e 9a79 dcbd cccb 103d
00000130: 5bb7 643e 5a18 e2bd f28f 503e b3a6 033f
00000140: bbe7 8e3d 7b96 d8be 20e6 1b3d 319c 90bf
00000150: ddf9 903f 7c24 793d 0c2e c0be 8656 813f
00000160: a0ab f3bc 07d9 73bf 9a02 4e3e 9374 443c
00000170: 7e56 b2bd 60ee 263d 529f cbbd 0c53 dbbf
00000180: 4228 da3e 0ca6 1abf 570a 21c0 bb40 58bf
00000190: e6b4 febe 8750 a6be 45f8 e03d a458 d53d
000001a0: 0cb0 66bf 19b8 283d cb0d 19be 868a bfbf
000001b0: c0f8 003b aca0 93bd 9a0b cebf 03ac 02be
000001c0: 40c0 4bbc 3157 f13d b0d2 c1bc 77b5 45bf
000001d0: 573b 26bf 4493 1e3d c6b2 00bc fcc1 60bd
000001e0: 57a7 25be 4b15 56bf 49ef eb3d a628 563e
000001f0: eda2 a4be f3e3 123e 8f1c d83d 8616 b5bf
00000200: d25d 853c 30da edbe 52a1 09be 82bf a5bd
00000210: bc44 46bd d4d6 64bd 194d de3e c5e4 d43e
00000220: da35 9c3e 322c c8bf 040b d1bc fcff a43e
00000230: 410d d7bd a818 33bd f8f2 aebf 7124 a53d
00000240: 6c45 d1bb ace2 06be 147d 6f3d d9d9 ae3e
00000250: acd5 213f 5842 22bd f25f 63bf b73a de3e
00000260: 31cb ecbd c3ea 06bf e0bf fc3e f522 f7bd
00000270: a339 01bc 1cef 443d 86ac 0bbf 6d8f 65bf
00000280: c8d2 753e 04c0 82bd dda0 2bc0 dd5d 90bf
00000290: fd5e 3ebf 9f78 e0bf a66f c2bc ed52 8ebd
000002a0: 154b 9f3c 613f cd3e 224f 003f 6218 38be
000002b0: 7839 bbbd 598e ac3d cc36 c9bf 9c96 26bd
000002c0: a237 91bd 3be7 943e 5c5d fd3d d021 323e
000002d0: 5c12 b3bd c4a7 74bd 4051 f8bd 1a18 933d
000002e0: 6e49 22be 6ca1 13be 5f11 8ebe 0f29 873d
000002f0: 5a01 5abf 9b2a 233e e320 903d 1d45 f33d
00000300: dd87 7fbd b13c 0ebc e71c c13d 0400 1dbd
00000310: ae08 8e3d d852 b63c 5a82 2f3f 972c b13c
00000320: 6a2b babd 1d3d 71be 1faa 9f3c 75bf 7d3d
00000330: 0a25 8c3d 10a2 ffbc f462 293d 385b 2e3d
00000340: 2ba7 113d 67f6 2d3d d0cb 41bc c5be abbd
00000350: 5fc2 6b3d 4620 9e3d d5f5 55be 4c7c a73e
00000360: e4df c8bc 931a 81bd e3c3 22be ec14 cebd
00000370: bacf c03c 956f 7bbd 2fb3 1bc0 65a5 dbbe
00000380: 7965 3d3d 10df a7bd eb5e 00bf b994 45c0
00000390: 038d 4bbe 2f7f 153e 3eb3 45bc 0652 fe3d
000003a0: 329c d7bb 0af0 9dbd b72f 873d 0d50 443d
000003b0: 6016 113d f2b9 463d 6a34 e8bd c52f 983c
000003c0: 0065 f7bb e228 1b3e 7c86 bbbd 770e 9ebd
000003d0: 7c7e 833d 7857 b1bd 2dfe 2cbd fa96 e03d
000003e0: 4c15 13be 3b5a 6dbd 3205 3fbe 6f06 84bd
000003f0: c060 33c0 a35b a6bc 63a3 94bd dbdc 8b3c
-0.0363722 0.18273324 0.0017653164 -0.03256476 0.04757692 -0.015983 -1.2158676 -0.36298606
-0.1297251 -0.52609897 0.078051396 -0.19722396 -0.20554155 -0.054533318 -0.20326637 -0.28219834
-0.1171099 0.2636365 0.025589751 0.020689184 0.103730485 -0.07777159 -0.4375869 0.20558788
-0.040340565 0.016480053 -2.6846907 0.104576014 0.06627957 0.020726325 0.33742696 0.08063045
-0.3050233 -0.15541457 0.13505027 -0.09995746 0.16438639 0.23438446 -0.010803793 0.0076872916
0.24026982 -0.94944453 0.2085685 0.2937783 -0.1148487 0.06549646 -0.25958508 0.101659134
0.11208795 0.21628273 0.041815758 0.031859092 0.10493888 -0.07658872 0.051252626 -0.119653836
0.07544377 0.1717833 -0.41423383 -0.020673966 -0.020064848 -0.8134446 0.10465973 0.20239012
-0.10070616 -1.5457423 0.11434287 -0.09632386 -0.06899953 0.040998474 1.2788574 0.15611409
-0.03926447 0.2897785 -0.10765381 0.035350606 0.2233557 -0.11039801 0.20367411 0.5142624
0.06977793 -0.42302307 0.03806126 -1.1297666 1.1326252 0.06082581 -0.3753513 1.010453
-0.029744923 -0.9525303 0.2011818 0.011990684 -0.08707903 0.040754676 -0.09942497 -1.7134719
0.4260884 -0.6040962 -2.516256 -0.8447377 -0.4974739 -0.32483312 0.10984854 0.104172975
-0.90112376 0.041191194 -0.14946668 -1.4964149 0.0019679517 -0.0720838 -1.609729 -0.1276093
-0.012435973 0.117842086 -0.023660034 -0.7723002 -0.64934295 0.038714662 -0.007855123 -0.054872498
-0.16177116 -0.8362624 0.115202494 0.20913944 -0.32155553 0.14344768 0.10552322 -1.4147499
0.016280089 -0.46455526 -0.13440445 -0.08093168 -0.048405394 -0.05586894 0.43418196 0.41580787
0.30509835 -1.5638487 -0.025517948 0.3222655 -0.10500575 -0.043724686 -1.3667898 0.08063591
-0.0063864496 -0.13172406 0.058468893 0.3415058 0.6321666 -0.03961405 -0.88818276 0.4340417
-0.11562193 -0.5270197 0.4936514 -0.120672144 -0.007887277 0.048079595 -0.54560125 -0.89671975
0.24006188 -0.0638428 -2.6816933 -1.1278645 -0.7436369 -1.7536811 -0.023734879 -0.069494106
0.019444982 0.40087417 0.5012075 -0.17978051 -0.09141821 0.08425588 -1.5719848 -0.040670976
-0.07090689 0.29082665 0.123713225 0.17395711 -0.08743736 -0.059730306 -0.12124872 0.071823314
-0.15848324 -0.14417046 -0.27747628 0.06599628 -0.8515831 0.15934221 0.07037523 0.11878417
-0.06238543 -0.008681462 0.09429341 -0.038330093 0.06935249 0.0222563 0.68558276 0.021627707
-0.09090312 -0.23558469 0.0194903 0.061950166 0.06843002 -0.031205207 0.041354135 0.04256746
0.035559814 0.042471316 -0.011828378 -0.08385996 0.057558414 0.077209994 -0.20894559 0.32712018
-0.024520822 -0.06303897 -0.15895037 -0.10062584 0.023536552 -0.06138571 -2.4328115 -0.42899624
0.04623935 -0.08196843 -0.50144833 -3.0872023 -0.1987801 0.14599298 -0.01206666 0.124179885
-0.006579899 -0.077117994 0.06600898 0.047927905 0.03542173 0.048517175 -0.11338122 0.018577466
-0.007549882 0.15152314 -0.0915651 -0.07717603 0.06420609 -0.086592615 -0.04223459 0.109662965
-0.14363593 -0.05794738 -0.18654326 -0.064465396 -2.8027802 -0.020307368 -0.07257726 0.017073086

fc3.bias f4 [26]
00000000: 4123 783d a7d3 313d 5a97 543e 9007 d73c
00000010: 6fd1 113e 6a14 5c3e c0a7 653e 90ea fdbd
00000020: e598 723b 89c9 cbbd f049 983c 3301 38be
00000030: 5c60 363e ff68 813d 0cb0 653c 8f61 c7be
00000040: 15f8 c2bc d1d4 3d3c be23 bb3b 4eea 8cbd
00000050: a342 963d 90a2 733d 12c7 583d d11d dbbb
00000060: f362 6ebd 37c6 bd3d
0.060580496 0.043414738 0.20760861 0.026248723 0.14240049 0.21492162 0.22427273 -0.12398255
0.0037017402 -0.09950549 0.018589944 -0.17969207 0.17810196 0.063188545 0.014019024 -0.3894162
-0.023799935 0.011586384 0.005711048 -0.068806276 0.07336929 0.059481204 0.052924223 -0.006686904
-0.058199834 0.09266322
